2022-06-23 09:22:16,938 - GCN_InteractE__2022-06-23-09h22m11s - [INFO] - GCN_InteractE(
  (embeddings): Embeddings(
    (ent_embeddings): Paramsters(14541, 200),
    (rel_embeddings): Parameters(474, 200)
    )
  (encoder): KB_GNN(
    (gcn_conv_list): ModuleList(
      (0): GCNConv(
        (w_ent): Weight(200, 200)
        (w_rel): Weight(200, 200)
        (loop_rel): LoopRel(1, 200)
        (drop): Dropout(p=0.1, inplace=False)
        (bn_ent): BatchNorm1d(200, eps=1e-05, momentum=0.1, affine=True, track_running_stats=True)
        (highway): Highway(
            (lin): Linear(in_features=200, out_features=200, bias=True)
          )
        (act): Tanh()
      )
      (1): GCNConv(
        (w_ent): Weight(200, 200)
        (w_rel): Weight(200, 200)
        (loop_rel): LoopRel(1, 200)
        (drop): Dropout(p=0.1, inplace=False)
        (bn_ent): BatchNorm1d(200, eps=1e-05, momentum=0.1, affine=True, track_running_stats=True)
        (highway): Highway(
            (lin): Linear(in_features=200, out_features=200, bias=True)
          )
        (act): Tanh()
      )
    )
    (encoder_drop1): Dropout(p=0.3, inplace=False)
    (encoder_drop2): Dropout(p=0.3, inplace=False)
    (bn_ent): BatchNorm1d(200, eps=1e-05, momentum=0.1, affine=True, track_running_stats=True)
    (bn_rel): BatchNorm1d(200, eps=1e-05, momentum=0.1, affine=True, track_running_stats=True)
  )
  (decoder): InteractE(
    (convolutions): ModuleList(
      (0): Sequential(
        (0): BatchNorm2d(1, eps=1e-05, momentum=0.1, affine=True, track_running_stats=True)
        (1): Circular_Padding_chw()
        (2): Conv2d(1, 200, kernel_size=(7, 7), stride=(1, 1), bias=False)
        (3): BatchNorm2d(200, eps=1e-05, momentum=0.1, affine=True, track_running_stats=True)
        (4): ReLU()
        (5): Dropout(p=0.3, inplace=False)
        (6): Flatten(start_dim=1, end_dim=-1)
        (7): Linear(in_features=80000, out_features=200, bias=True)
        (8): Dropout(p=0.2, inplace=False)
        (9): BatchNorm1d(200, eps=1e-05, momentum=0.1, affine=True, track_running_stats=True)
        (10): ReLU()
      )
    )
  )
  (bce_loss): BCELoss()
)
2022-06-23 09:22:16,968 - GCN_InteractE__2022-06-23-09h22m11s - [INFO] - 
Parameters:
	data: FB15k237
	use_apex: True
	predict: False
	pretrain_path: 
	pre_train_step: 100
	use_magic: False
	batch_size: 128
	max_epoch: 1000
	lr: 0.0005
	weight_decay: 0.0
	seed: 41504
…
